variational_autoencoder.pth (torch, 163980 bytes, 14 tensors)

encoder.0.weight f4 [128, 77]
00000000: b057 80be cf7e 11be 55e5 efbd 631f fa3c
00000010: 549c bfbd 02ae e33d d874 903d b9e9 f43d
00000020: 37d0 a93d 0971 dc3d 310c 183e a16f ce3c
00000030: e170 da3d d201 153e c3b2 c7bd b8f2 84be
00000040: 316f 8b3d 3b85 1e3e af9d 4b3e 36a6 c1bd
00000050: c396 bfbd dea9 813c 60ee 8e3e fec0 733e
00000060: 71ed 62bd f9a7 aabd 8378 2cbe 1ea0 36b9
00000070: 1f60 02be df03 233d 6162 b13d 9690 abbd
00000080: d0e3 a83c acfd 78bd 78fe 093d 0dee 2f3d
00000090: beeb 40be 74a0 6c3d ec5a 67be 65db 233e
000000a0: 7879 293d ecf4 943b beb3 41bd 685d c63d
000000b0: 4a4d 3fbe 2471 94bd 8871 c63c e8be 643e
000000c0: 7872 39bd 6193 0dbe 7a80 00bd 53d3 8bbe
000000d0: facb 093e 8dac febc 536f 3d3e baf1 d03d
000000e0: dcdb 3b3d 524c 70bd 1042 a73b 726c 35bd
000000f0: f08e 3ebc 8c4e 463d a64f 68bc ae88 b9bd
00000100: 7613 943d e562 3f3e cbe5 5a3e 79a0 83bd
00000110: a7f2 c1bd 86fa 083e d4d0 9bbd 2567 2b3e
00000120: c4a4 163e 8bfd de3d acc9 613d 4d2f 04bd
00000130: a6cd 163e 5068 52be 3da4 a7bc 7758 b83d
00000140: 894f 813d 934d e43d 047e f6bc 3b3c 443e
00000150: af68 203e babe cc3c 15e0 b93d 9a95 18bc
00000160: e5b5 a13c 47ff a43d 4721 e4bc 7b7c a93d
00000170: 09d1 54bc 4a9c 85bd e862 35bd 09b0 f73c
00000180: 3c90 a13d 776d 453e 9934 663d ef89 f03d
00000190: c181 a5bd 0b80 9abd 4f4d 723d 0e0d d63b
000001a0: 7c60 b63c 3b18 a4bd cf52 2c3e ede1 af3d
000001b0: c90a bcbd 14a4 84bd e050 86bc 93f6 02be
000001c0: 9a5e d9bd 464e 13be 883d 22be cc2b d5bd
000001d0: 2e1a 33bd dcf3 16bd 51d8 1f3e 05a6 843c
000001e0: 80df dbba 7f9a 223e f3e2 143e 9c86 82bc
000001f0: 82ca fe3b 395d cb3c 4c1b bf3d 684f b73c
00000200: edec 98bc 54f3 debc 8504 3e3e a96f b2bb
00000210: a0c2 b53c 4a2c 9abd fe9e 2dbd ec64 183d
00000220: e08a ebbc 159d bdbd 226d 5e3c 7a5e 98bc
00000230: cdba d6bd 838c 443c 9217 053e 8090 fb3d
00000240: fd65 3cbd aa1e 7fbd 7508 e03c 2c51 ea3d
00000250: 07d2 103e 4354 ee3d ea24 c5bd c5c2 dcbc
00000260: e5a2 d9bd 47de 38bc 9a41 1cbd 0874 b4bb
00000270: b4ff 6cbd 2e98 2a3d c91e b1bd 03c1 2fbe
00000280: e6dd 46be cdf5 0e3c 057c 27bd d39c 5dbe
00000290: a4f4 93bc d2aa a5bd a3a4 77bd bb4c febd
000002a0: ecfa af3d 0b70 a63b 0a85 0a3e e1fb 543e
000002b0: ab83 063e b6f8 0abc 840e ccbd b7d6 15be
000002c0: 4b67 2fbe 9173 67be a6cb 173c c115 0abe
000002d0: b930 393e b9cd 183e f75d 59bd 25fc 793e
000002e0: ccb3 b7bc d0fd 163d 60cb 0f3b ac13 b1bc
000002f0: da8d 7ebc 9a3b 153d 1c9e eabd 7ffd 613d
00000300: b2cc dc3d 3549 e8bc 8e6c 15be bc1d 3ebe
00000310: 2dfc 78be 52b4 90bd e6c4 93bd d40b 963d
00000320: 5047 b43c 976f bc3d 56ce eebc 789e b83e
00000330: bf55 c7bd 2b45 593e cc59 bdbd 7832 30be
00000340: 0efd 1cbe b09e 9a3d 087c 493d 07df c9bd
00000350: 6ca6 563d f8f4 9c3d 407f 25bd e905 15be
00000360: 46e1 d439 353c debd b5e1 4ebe 91ea 00bd
00000370: ae46 e43d ff61 8cbd 5a02 333c 257f 123e
00000380: da4c 11be df43 b93c 6087 a03d 822e bebd
00000390: 9728 a93c 38e8 75be b555 81be e288 24bc
000003a0: cecd abbd e160 e73d bd8f 9d3d 0290 61bd
000003b0: 731a b03d 9c39 653e 8aae 953d 1b7a fd3d
000003c0: 5bb4 623d dab7 b63d 0434 4a3d eefd e63d
000003d0: c6ce 21bd 63ed 0b3e dfe5 9f3c b140 8abd
000003e0: b268 443d 7918 863d 96d5 74be 8621 09bb
000003f0: 5e63 1cbd ddb8 f63d 7494 12bd 35df 99bd
-0.250669 -0.1420853 -0.117136635 0.030532544 -0.09355989 0.11117174 0.07053536 0.119586416
0.08291667 0.10763747 0.148484 0.025199713 0.10666061 0.14551476 -0.09750893 -0.2596643
0.068083175 0.15480511 0.1988437 -0.0945553 -0.093549274 0.01582807 0.2791624 0.2380409
-0.055402223 -0.083328195 -0.16842847 -0.00017416521 -0.1273198 0.039798614 0.086613424 -0.08377187
0.020616442 -0.060788795 0.033689946 0.042951632 -0.18839929 0.057770208 -0.22593278 0.16001661
0.041375607 0.0045457985 -0.047290556 0.096857846 -0.18681827 -0.07248142 0.024224058 0.2233845
-0.04527518 -0.13825752 -0.031372525 -0.27309665 0.13456717 -0.031088138 0.18499498 0.10202356
0.04586397 -0.058666535 0.005104311 -0.044292875 -0.011630759 0.048414752 -0.014179146 -0.09059273
0.072302744 0.18690069 0.21376722 -0.06427092 -0.094701104 0.13376817 -0.0760819 0.16738565
0.1471129 0.10888203 0.05512397 -0.032271672 0.14726886 -0.20547605 -0.020464057 0.09001248
0.06313998 0.111476086 -0.030089386 0.19163601 0.15664934 0.02499329 0.090759434 -0.009313012
0.019740054 0.08056503 -0.0278479 0.08275696 -0.012989291 -0.065239504 -0.044283777 0.030235307
0.07888839 0.19280039 0.056202505 0.11745059 -0.08081389 -0.075439535 0.05915576 0.006532318
0.022262804 -0.08012434 0.16828464 0.08588014 -0.091817446 -0.06476608 -0.016395986 -0.12789373
-0.10613747 -0.14385328 -0.15843785 -0.10408744 -0.04372614 -0.036853656 0.15609862 0.016192446
-0.0016774982 0.15879248 0.145397 -0.015933327 0.0077756057 0.024824725 0.09331378 0.022376731
-0.018667663 -0.027215637 0.18556412 -0.00544544 0.022187531 -0.07527979 -0.042387955 0.03720562
-0.028752744 -0.09258477 0.013575824 -0.018599737 -0.10484848 0.011996391 0.12997273 0.122834206
-0.0459957 -0.062285103 0.027347783 0.114412636 0.14142619 0.116371654 -0.096261814 -0.026948342
-0.10626773 -0.011283464 -0.0381485 -0.005506996 -0.057861045 0.041649036 -0.0864845 -0.17163472
-0.19420585 0.008725596 -0.04088976 -0.21641855 -0.01806099 -0.08089222 -0.060459744 -0.12416979
0.085927814 0.0050792745 0.13527313 0.20799209 0.13136165 -0.008482149 -0.09963706 -0.14632688
-0.17129247 -0.22602679 0.009264862 -0.13484861 0.18084992 0.14922227 -0.053068127 0.24412592
-0.022424601 0.03686315 0.002194129 -0.021615826 -0.01553675 0.036433794 -0.11455938 0.055173393
0.1078123 -0.02835522 -0.14592192 -0.1856603 -0.24314947 -0.07065643 -0.0721529 0.07326475
0.02200666 0.092009716 -0.029151123 0.36058402 -0.09733152 0.21217792 -0.09245643 -0.17206752
-0.15330908 0.075497985 0.04919055 -0.09856992 0.052404806 0.076639116 -0.04040456 -0.14553036
0.00040603633 -0.10851327 -0.20203288 -0.0314737 0.111462936 -0.06854629 0.010925854 0.14306314
-0.14189473 0.022615371 0.07838321 -0.092862144 0.020649238 -0.24014366 -0.25260702 -0.010042401
-0.083888635 0.11297775 0.076934315 -0.055068977 0.08598795 0.22385257 0.07308681 0.123768054
0.05534778 0.08921786 0.049366012 0.11278902 -0.039503835 0.13664775 0.01951879 -0.0675062
0.047951408 0.065476365 -0.23909602 -0.0020924523 -0.0381807 0.120469786 -0.035786107 -0.075132765

encoder.0.bias f4 [128]
00000000: 868b 433e ac49 ba3e 1350 703d aef8 863d
00000010: 3c71 1f3e a594 5f3e 1e02 233d fac1 aa3d
00000020: 2092 f3bb 805a e73e ee81 a33d 89c9 433e
00000030: c7a0 0b3e d7d9 c13e ac47 1b3e f89c 183e
00000040: f27d 423e 7e92 f13d da87 873e b29e 083e
00000050: 4865 263e 85fa 4f3e b76b 4abd 58fd 1f3e
00000060: 9860 8a3e 3581 223e 9aa5 b4bd 1ceb c1bd
00000070: e91f 4c3e f729 3a3e a992 563e a012 b63d
00000080: 4fc0 9c3d fc30 2b3e 207b 363e f4a4 903e
00000090: 8c9d 903e 68e3 953d 9753 013e ad57 a93e
000000a0: 2f14 a43d 0d04 913d b3e5 a23d 210e 463e
000000b0: b011 863e 39c0 733e 49e4 513e aa7d a73d
000000c0: 7418 c839 86aa af3e fd27 8c3e 2e96 013e
000000d0: 8bba 0a3e 88ce 953d 965c 9e3d 4da5 a2bb
000000e0: ce23 3e3c 089d b33d c5d6 953c f9b2 9cbd
000000f0: 0b5e a93d f6da 233e 7bf9 453e 7dac 8c3d
00000100: e1f7 8f3d 67c6 683d 3278 343e 26d7 ba3d
00000110: df9e 5e3e 6ef5 2c3d aed2 e93d 9436 0e3e
00000120: f012 523e 1c2a b73e 2686 8d3e b4f1 863e
00000130: b63f 4f3e 9a49 933d 1f70 153e 8727 5c3e
00000140: 1adc 4a3e a0b6 6c3e b474 9f3e d5fe ca3e
00000150: 345b f03d b64a ad3d 06e5 ab3e 7bc0 0f3e
00000160: 111b 203e 2d8e 6dbd 7d03 833e e84a 31bc
00000170: f35b 833d 8262 963e d9dc ec3d 4286 e33d
00000180: e3ba 223e cb1c 7b3e 34a6 d63d 38cc 263e
00000190: d5fc fd3d 8c6f 173e 2e5d 20be d78f 3e3e
000001a0: 89f3 0f3e ffbc ae3e f298 ed3d 5f55 133e
000001b0: eba1 603d 59d6 573e 882e 6b3e 4881 273e
000001c0: b94b f33d 0b32 9d3e 3810 683e cbd6 73bd
000001d0: 5167 c53e 3d46 a83c 7fe1 863e f1b9 173e
000001e0: 77ec 133e 43cf 5f3e af7c a43d 2f4f dbbd
000001f0: 630a a63d 4a15 50bd a8c5 5e3e d4a9 c13c
0.19096193 0.36384332 0.058670115 0.06590401 0.15570539 0.21834047 0.03979694 0.08337779
-0.007433191 0.45186234 0.079837665 0.19119848 0.1363555 0.3786151 0.1516406 0.14903629
0.18993357 0.11795519 0.26470834 0.13341787 0.16249573 0.2031041 -0.04941913 0.15623987
0.2702682 0.15869601 -0.088206485 -0.09468672 0.19934048 0.18180071 0.20954384 0.08890271
0.076538675 0.16717905 0.17820406 0.2825085 0.282452 0.07318765 0.12629543 0.33074704
0.08011662 0.07080851 0.07953968 0.19341327 0.2618537 0.23803796 0.2049724 0.081782654
0.00038165192 0.34309787 0.2737426 0.12654945 0.13547723 0.07314783 0.07732503 -0.004963553
0.011605216 0.08770186 0.018290887 -0.07651324 0.082698904 0.16001496 0.1933345 0.06868837
0.07029701 0.056829836 0.17623976 0.091230676 0.21740292 0.042226247 0.11417137 0.13888007
0.20515037 0.35774314 0.2764141 0.2635628 0.20239148 0.07191773 0.14593552 0.21499453
0.19810525 0.23116541 0.31143725 0.39647546 0.117361456 0.084615156 0.3357317 0.14038269
0.15635325 -0.057996918 0.255886 -0.010821082 0.06414022 0.2937203 0.11565561 0.11109592
0.15891604 0.24522702 0.104809195 0.16288841 0.124017395 0.14788646 -0.15660545 0.18609558
0.14057745 0.34128568 0.11601438 0.14388035 0.054841917 0.21077861 0.22966969 0.1635791
0.11879677 0.30702242 0.22662437 -0.059531014 0.38555387 0.020541305 0.26343915 0.14817025
0.14445673 0.21856408 0.08031594 -0.107084624 0.0810745 -0.050801553 0.21755087 0.02364055

encoder.2.weight f4 [64, 128]
00000000: 1b68 ebbd e7a3 6d3d a25a 303e f871 b33d
00000010: fb3f b73d 48eb ad3d 9773 053d dc53 c13d
00000020: 92d2 f6bd cd81 5a3e e29a cd3d fc26 953d
00000030: 2513 fabd 54cc fabc 162e bfbc 2da3 42be
00000040: 3892 bebd eaea cebc cc61 993d e46b ba3d
00000050: 7630 8d3d c4aa b83d 5a03 78be c324 95bd
00000060: 8684 0b3e 5516 233e 0c34 413e 3e56 80bd
00000070: 0c9c 14bd f2ec 2b3e 3228 083e 7d6a bcbd
00000080: 9526 673d 8033 b83c ecc1 743e c660 36bd
00000090: 42d2 723d 1e2f 8e3c 5fe6 083e 0280 2d3e
000000a0: 27c4 e03d e685 21bd dc09 993d 1c1f f73c
000000b0: 3d3c 283c 1458 bb3d 548f 8dbd 8a24 a53d
000000c0: 59fb 443d 5810 4b3e f78b 0e3e 0e69 1abe
000000d0: e376 ea3d dc69 613d 555f e03d 6014 203d
000000e0: 848f 13be 0145 c03d 749d 403d 812e cc3d
000000f0: eeb9 b3b9 b295 133e d94b 4ebd d25e 00be
00000100: f73c be3d a2bb dfba d2ec a43d 013b 493d
00000110: 272b debd e299 75bd 42bf 4a3d e9d7 913d
00000120: 92f5 25bd 3356 83bd 1a6f e93d 4e24 fd3c
00000130: 4c82 113e cf6e 2fbd fe61 3fbd 4961 343d
00000140: c570 8c3d eda9 daba 560a 4a3e f4ec 843d
00000150: bfb2 fdbc a5af a03d 42e3 50bd 82e4 963d
00000160: 846a 70bc 518b c1bc 659b f33d d017 8f3d
00000170: 2f49 34be 6bcf 3cbe d8ad 1c3e c8b7 1abb
00000180: b271 9d3d 36b0 2f3d d1e4 68bb 934a de3d
00000190: 452a 0a3d 1cda 82bd 2f62 32be d96c bb3d
000001a0: 30fa 1abe a84e e6bb 6549 583e 65c8 083e
000001b0: a3c1 da3d 2f0c 653e a54c 83bd 48f2 ff3d
000001c0: 4cf2 0b3e e135 333d 7b42 32be ec34 443d
000001d0: 9f28 ce3c e9f4 15be fa99 e13d 4368 2f3d
000001e0: 7400 253e 630c 27be f747 5fbc fb7f bdbd
000001f0: a8dd 17bd 6a64 243d d31f c8bd dc62 dfbd
00000200: 3d6d ff3d dcfa 863e 4f58 81bd 4104 283e
00000210: 53e2 a3bc df3b 913d 9ed3 473c 24e3 46bd
00000220: 6c39 983c c8ab f53c 245e 64bd 2b38 883e
00000230: 650e 3f3d f1a2 82bc 8321 2f3d e857 8c3d
00000240: 44a6 8a3d 8981 85bb a687 31be 58ee 4e3e
00000250: e47b fe3d 0e67 3d3e 0003 b83d 0539 05bd
00000260: 1a81 ed3d 0365 c3bd 7053 b53d 745b 093e
00000270: e11c 16bd 0b76 49bd 46a4 463c c4f8 e83c
00000280: 11c1 393e f170 19bd 2bed 01bd 42a0 24bd
00000290: c0eb a53c 94e8 bd3d 67ab c03d 9b00 1a3c
000002a0: a2da bfbd 1370 21bd a099 dc3b ef6b 5b3d
000002b0: 2170 9b3d a002 323e 7efc bcba 015c 673d
000002c0: 55cc 31bc 64f2 3b3e 7d73 16bc 8b6b 873d
000002d0: 35de f33d 4746 1d3e b85d 823d dbf9 003e
000002e0: 5ec1 383c 7d90 273e 4a74 4bbd beb0 8cbc
000002f0: 7626 163d 8dd4 3a3d 00c6 6dbe ae24 08be
00000300: e186 a93d e6eb 6c3d 8403 b83d f38f 8dbd
00000310: cc4f 443e 307b 17bd 39ed 1c3e 9332 5a3e
00000320: e4b0 0e3d ead6 893e 53d4 b73c 22ca d53d
00000330: 43a6 b73d 7f33 013e f6e8 b33c 6eb9 b23d
00000340: 32e8 71bd 6c7f 903d d3bc c73d 26a3 17be
00000350: dfa4 bd3d 3614 733e 421c 243e d045 ffbb
00000360: 165e dfbd edd6 cebd 2015 423e 9b60 76bd
00000370: ad26 ac3d 1dfb 92bd c90c d33d 6c32 38bc
00000380: 78eb ddbd acdc 633d 4413 ab3d d766 95bd
00000390: 6418 323e ac19 743e 2ef4 103e c0f2 b83d
000003a0: d66c a13d bcaa fbbd fad7 593e 8ae2 bcbd
000003b0: de0d c8bc 2ee8 aabd 135d 203e 4935 983d
000003c0: 8fc3 0d3d 0831 a83d 1d89 403d 7ef4 3dbe
000003d0: 6163 653d 070e 6dbb 5d8c a2bd ff1e 92bd
000003e0: b207 62bc 699b 9fbd 110c 3abe 7811 393d
000003f0: 52ea a6ba 4afc d9bd d222 8c3b b6e0 173e
-0.11494466 0.058017638 0.17222074 0.08761972 0.0894775 0.08492142 0.03258094 0.09439823
-0.12051882 0.21338578 0.10039307 0.07282826 -0.12210683 -0.03061501 -0.023337405 -0.19007559
-0.09305233 -0.0252585 0.074893564 0.0910261 0.06894009 0.09016946 -0.24220029 -0.07282402
0.13624772 0.15926488 0.1886751 -0.062664494 -0.03628163 0.16789606 0.13296583 -0.091999985
0.05643328 0.022485495 0.239021 -0.044525884 0.05928255 0.017356452 0.1336913 0.16943362
0.10974913 -0.039434336 0.07472584 0.030166201 0.010268268 0.09147659 -0.06912103 0.0806361
0.048091266 0.19830453 0.1392058 -0.15079138 0.11448457 0.055032596 0.10955683 0.03908193
-0.14410216 0.093881615 0.04702516 0.099698074 -0.0003428007 0.14412573 -0.050365303 -0.12536171
0.09288972 -0.0017069469 0.080529824 0.049128536 -0.108480744 -0.059961207 0.049498804 0.0712126
-0.040517397 -0.064129256 0.11398144 0.0309011 0.1420986 -0.042830285 -0.046724312 0.04403809
0.068574466 -0.0016682722 0.19730505 0.06490508 -0.030969022 0.078460015 -0.05099798 0.07367803
-0.014673833 -0.023626002 0.118948735 0.06986964 -0.17606042 -0.18438499 0.15300691 -0.0023608077
0.07687701 0.042892657 -0.0035536776 0.10854068 0.033731718 -0.06389257 -0.17420267 0.091516204
-0.15134501 -0.0070284195 0.21121748 0.13357694 0.106814645 0.22367929 -0.06411103 0.12497383
0.13666648 0.043752555 -0.17408173 0.047902033 0.025165854 -0.14644207 0.11015697 0.04282404
0.16113454 -0.16313319 -0.013627998 -0.09252926 -0.037076622 0.040134825 -0.09771695 -0.10907528
0.124720074 0.26363266 -0.06315672 0.16407873 -0.02000538 0.07091498 0.01219645 -0.048556462
0.018582068 0.029989138 -0.055753842 0.26605353 0.046644587 -0.015946837 0.04275657 0.06852704
0.06769994 -0.0040742797 -0.17336902 0.20208108 0.12425974 0.18496343 0.08984947 -0.03252508
0.1159689 -0.09540751 0.08853805 0.13413793 -0.036648635 -0.04918484 0.012124127 0.028438933
0.18140055 -0.037461225 -0.03172032 -0.040191896 0.020254016 0.092728764 0.094076924 0.009399558
-0.09367873 -0.039413523 0.0067321807 0.05356973 0.07589746 0.17383814 -0.001441851 0.056484226
-0.010851939 0.18354183 -0.009182808 0.06612309 0.11907617 0.1535884 0.06365532 0.12595312
0.011276571 0.16363712 -0.04967145 -0.017174121 0.036657773 0.04561286 -0.23220062 -0.13295242
0.08277679 0.057842158 0.089850456 -0.06912222 0.19171065 -0.036982715 0.15324868 0.21308355
0.034836665 0.2692178 0.022440111 0.104389444 0.08967259 0.126173 0.02196167 0.08726774
-0.05905933 0.07055554 0.09752812 -0.1480833 0.09259962 0.23738179 0.16026405 -0.0077903047
-0.10906617 -0.100995876 0.18953371 -0.060150724 0.08405814 -0.07176802 0.10305173 -0.01124249
-0.10835928 0.05563037 0.08353284 -0.07295006 0.17392117 0.23837918 0.14155647 0.09030676
0.07882087 -0.122884244 0.21273795 -0.092228964 -0.024420675 -0.08345066 0.15660505 0.07432038
0.034610327 0.08212477 0.04700576 -0.18550298 0.05600298 -0.003617169 -0.079369284 -0.07134818
-0.01379578 -0.07793314 -0.18168665 0.045182675 -0.0012734628 -0.106438234 0.004276612 0.14831814

encoder.2.bias f4 [64]
00000000: ee89 6f3e c1ff 243e 0f3c 813d 5d8d b1bc
00000010: 3dea 223e 1e50 f6bb 9726 47bd bcd9 e93d
00000020: 026e 1e3e 1a0d 503e ebcf e73a 3166 2b3e
00000030: 7f02 923d 9230 043d 808b 99bc 8650 873c
00000040: 94d8 7cbd 3fff 91bc 3446 b73d c371 8d3c
00000050: 3e94 933d 9d14 17bd 997e fc3b 9d32 ff3c
00000060: 94e5 963c 50c7 9a3d 89b4 393d 6ac7 cd3d
00000070: 82fe 993d 9de3 6a3d c18a b43c 4471 e43d
00000080: f5d3 553d f099 c1bc 8851 123d 2065 e83d
00000090: cf07 b53c 4564 bf3c 088a 903e bb3e 45bd
000000a0: 262e e23d c6b9 cdbc 7e56 943d 671c e93d
000000b0: 173e 083e 95c5 8d3d baad 203c c5ce 503c
000000c0: 81f2 aabd d9d2 f23d 7c17 b63d 63fe 4b3d
000000d0: ec7b 32bc 3300 313e c72e 03bd 633e c53d
000000e0: 4e2b 87bd 1587 fa3d b960 c93d 846a b63d
000000f0: 5a52 263e e04a ab3d 07f6 ccbc 0511 843d
0.2339246 0.16113187 0.063102834 -0.021673853 0.15909667 -0.007516875 -0.048620787 0.11418483
0.15471652 0.20317498 0.0017685866 0.16738202 0.07129382 0.032272883 -0.018743277 0.016517889
-0.061729982 -0.017821906 0.08948937 0.01726616 0.07206009 -0.036884893 0.0077055213 0.031152064
0.018420018 0.07557547 0.045338187 0.10047801 0.07519247 0.057345975 0.02203882 0.11154416
0.05220409 -0.023632973 0.035722286 0.11347413 0.02209845 0.023363242 0.2823031 -0.048155528
0.11043958 -0.025112998 0.072430596 0.113823704 0.13304935 0.069224514 0.009807045 0.01274461
-0.08347035 0.11856622 0.08891198 0.04980315 -0.010893803 0.17285232 -0.032027032 0.0963104
-0.066000566 0.12232796 0.098329015 0.08907035 0.16242352 0.08363891 -0.025019659 0.06448559

fc_mu.weight f4 [16, 64]
00000000: b4ac 78be 004c ebbd 118e 57bd ea32 abbd
00000010: 98a2 843c 02da 263e 64ce eebc 6d07 c5bd
00000020: c3df 153e 17d6 fbbd 2da4 3fbe d918 b4bc
00000030: 5b83 44be 405c 50be 96eb f4bd 27e7 763c
00000040: 7f5c 243d ba4f 6a3d c023 4f3e c715 ae3d
00000050: 2abc 9cbd 9540 8abd 04e5 73be a5dd 3c3e
00000060: 769d 59be 5ba4 41bd 507e 07bd df60 53be
00000070: 7874 5a3e 8bd9 38be e728 0dbe 15e6 fabd
00000080: 54af 16be bb11 543d 9696 cb3d 803c c93d
00000090: 4ac3 613d b899 933d fecc 39be 6dab 77bd
000000a0: 9f9c 8c3c fbe3 8e3d 466f 0fbe 2d49 383e
000000b0: 9766 033e 68e2 9e3d 70cb 43bc 643f 78be
000000c0: 6b54 a33c 25d8 b33d ed4b b1bd 8993 0abd
000000d0: 556a 0ebe a3ae c63c 24de a03d 3058 e33d
000000e0: 4838 513d 964d 10be c4a5 14bd 38f8 0bbe
000000f0: a9f6 cbbd 71e9 16be a5de 0a3c c674 3f3e
00000100: 9fb7 10be 4298 d939 ec9c 5cbe 557f b5bd
00000110: 211e 47be aee9 2c3d 5545 2d3e 9c68 79bd
00000120: ebb0 debd 6cb1 71be b49e 00be 52db 6cbe
00000130: 9535 b3bd 185b ec3c 74d9 2f3e f63b 3fbe
00000140: 21f0 973d 5bf2 4ebd d13f 7c3d b356 5ebe
00000150: 8866 a83d da57 1dbe fdaf 853d 4963 babd
00000160: 27ac 933e 03c9 1d3e e4a8 373e dede 533e
00000170: 6cf7 1d3d 5dda 04bd 5024 cbbd e217 c43d
00000180: d2df 40bc 18b6 20be f873 37bd 1394 edbd
00000190: 1acb a03d 1fe4 64bd e99e 09be 2561 0f3e
000001a0: 3c04 c1bd 3e66 83be a6f6 4c3b a729 12bd
000001b0: 178e 1c3d f278 953d f486 afbd a399 313e
000001c0: c2f9 0e3d fccc c5ba b7f9 01be 3337 47be
000001d0: a5d2 f33d 987e 503d 5315 1b3d adbf 673c
000001e0: ea0b 7c3e 7e03 b93b 40c0 dbbd 604b 8a3d
000001f0: 9f30 55be 8e65 eb3d 8e4e 243e 7174 883c
00000200: 322f 353d c17f 7dbd c707 813d abb8 10bd
00000210: 23a1 fc3c 06e3 93be 8a95 cbbd f377 553e
00000220: 3956 363e 63d0 2fbe 609d b2bd f552 853e
00000230: e64f b1bb 61ff 64be c38d 2abe 3bd0 9d3c
00000240: bb06 68be 290f 08bd bd4b 4fbd 6d0b 02bc
00000250: dd06 28be ff11 48be fd00 84be 705d e33d
00000260: 174e 243e 31ae 473d 5344 f63d f947 303e
00000270: dd15 4d3e a7de 37be b16a dfbd 802e cbbd
00000280: d8bd 7e3e ec95 42bd be29 443d 10b9 a8bd
00000290: 49e5 34be a450 0ebd ed68 b23d e777 9e3d
000002a0: aff6 26bc cc39 e93d 762a 1bbd eb87 89be
000002b0: 1d72 303e 96e4 bfbd 298c 29be 01e3 72bd
000002c0: d9c7 1d3d a2f8 8b3d 1dad 3d3d 1411 0e3e
000002d0: f0c0 8abe 35cb 3cbe 054c 65be cb03 5c3d
000002e0: 6348 063e 3514 803c 13a1 8b3d 6f58 123e
000002f0: 5020 a23d 25be 063e 1578 1ebe 5ec3 0e3d
00000300: 626d 0cbe d9ae b53d 9862 083e adb2 1bbd
00000310: 5e43 013e b6b9 c4bd 9c29 53bc 8b6a 15bb
00000320: 5f1a 2b3e 8d2d e83d da27 12be b89d b93d
00000330: 0e34 9bbd b132 10be d04f 00be 962e 81bd
00000340: 6deb 9c3d 1354 e03d 26a7 5fbe 2692 3d3e
00000350: 1752 85bd d931 16be 8595 2f3e c8ea 1d3d
00000360: ab1c 233e 5867 993d b09a b0bd 21f9 c1bd
00000370: 1958 12be 47a3 58bd 4608 32be b379 59bd
00000380: 7c90 efbb d1e6 143e de11 893e 1f3b bdbc
00000390: 450e 053e d842 473e 4769 b7bc 043d 65be
000003a0: 49ea 1f3e 1594 86bc 3ddc a03d 7193 3fbe
000003b0: b7f9 cbbd 1051 143e 349d 0ebc 1466 b53d
000003c0: 360b 9dbd 9251 d63d f81c 063e 9424 693e
000003d0: 1a23 f3bd 0ef1 883d 6309 0ebe 9732 103e
000003e0: e9d3 0ebe cfb5 4fbe 1626 3c3e ecf2 b83d
000003f0: a8ab 9abd b5d9 843d 64cc 30be 6104 ac3d
-0.24284631 -0.11489105 -0.05262572 -0.083593205 0.016190812 0.16294101 -0.02915115 -0.09620557
0.1463614 -0.12296694 -0.18714972 -0.021984505 -0.19190733 -0.2034769 -0.11958997 0.015069759
0.040127274 0.05720494 0.20228481 0.085002474 -0.07653077 -0.06750599 -0.23817831 0.18443926
-0.21251473 -0.047275882 -0.033079445 -0.20642422 0.21333492 -0.18051736 -0.13785134 -0.12250916
-0.1471532 0.05177472 0.09940831 0.098259926 0.055117883 0.07207054 -0.18144605 -0.06046622
0.017164527 0.069770776 -0.14007291 0.17996664 0.12832104 0.07758027 -0.011950359 -0.24242932
0.019937715 0.08781461 -0.0865706 -0.033832107 -0.1390775 0.024253195 0.0785487 0.11100805
0.051079065 -0.14092097 -0.0362909 -0.13668907 -0.09959156 -0.14737488 0.008475934 0.1869689
-0.14132546 0.00041502906 -0.21544236 -0.08862177 -0.19445087 0.04221504 0.1692098 -0.06089078
-0.10873588 -0.23602837 -0.1256054 -0.23130539 -0.08750454 0.02885203 0.17172796 -0.18675217
0.07418848 -0.050524097 0.061584298 -0.2171276 0.08222681 -0.15365544 0.06527708 -0.091009684
0.2884228 0.15408711 0.1793552 0.20690486 0.038566038 -0.03243481 -0.099190354 0.09574868
-0.011772113 -0.15694463 -0.04478833 -0.116005085 0.078512385 -0.055881616 -0.13439526 0.14001901
-0.09424636 -0.25663942 0.0031274944 -0.035684254 0.038221445 0.07298459 -0.08570662 0.17343764
0.034906156 -0.0015090997 -0.12692915 -0.1945465 0.11905412 0.05090198 0.037862133 0.01414482
0.2461392 0.0056461683 -0.10730028 0.06752658 -0.20819329 0.114939794 0.16045591 0.016657086
0.044234462 -0.061889414 0.063003115 -0.035332363 0.030838555 -0.28884143 -0.09940632 0.20846538
0.17806329 -0.17169337 -0.08721423 0.26039854 -0.005411136 -0.22363044 -0.1665564 0.019264331
-0.22658817 -0.033217583 -0.05060934 -0.007937294 -0.16408868 -0.19538115 -0.25782004 0.11101806
0.16045414 0.048750106 0.120247506 0.17214955 0.20027871 -0.17956029 -0.10909022 -0.099209785
0.24877107 -0.047506258 0.04789137 -0.08238423 -0.1766559 -0.034744874 0.08711419 0.07737713
-0.01019065 0.11387977 -0.03788229 -0.2686151 0.17231031 -0.09369771 -0.16557373 -0.05929852
0.038520668 0.06834532 0.04630767 0.13873702 -0.27100325 -0.18436892 -0.2239228 0.053714555
0.13113551 0.015634635 0.06817832 0.14291547 0.07916319 0.13158472 -0.15475495 0.034854285
-0.13713601 0.0887124 0.1331886 -0.038012195 0.12623355 -0.09605734 -0.012888338 -0.00227991
0.16709279 0.11336813 -0.14273015 0.090632856 -0.07578288 -0.14081837 -0.12530446 -0.06307714
0.076620914 0.10953536 -0.21841106 0.18512782 -0.06509798 -0.14667453 0.17146881 0.038553983
0.15928905 0.074904144 -0.08623254 -0.09471346 -0.14291419 -0.05289009 -0.17385969 -0.053094577
-0.007310925 0.14541174 0.26771444 -0.02309948 0.12993725 0.19459093 -0.022389067 -0.22386557
0.15616716 -0.016428033 0.07854507 -0.18708588 -0.09959739 0.14484048 -0.008704472 0.088573605
-0.07668154 0.10464777 0.13096988 0.2276786 -0.118719295 0.066866025 -0.13870768 0.14081798
-0.13948025 -0.20284198 0.18373904 0.09030709 -0.07552272 0.06486837 -0.17265469 0.08399273

fc_mu.bias f4 [16]
00000000: 0008 11be 0129 063e d3b9 f13d 7b19 b23b
00000010: bf7b 513d 476b 1d3e 16bd 573d d9ef 58bb
00000020: 07cc a23d 7921 593e 79ca 023e 4bf4 82bc
00000030: 8923 013d bef0 bf3c c62f f7bd 7481 6dbc
-0.14163208 0.13101579 0.11803021 0.0054351664 0.051143404 0.15372954 0.05267056 -0.0033101945
0.079490714 0.21204175 0.1277255 -0.015985629 0.03152803 0.023430225 -0.12069659 -0.014496196

fc_logvar.weight f4 [16, 64]
00000000: c712 e7bd e5a4 88bd 0bf6 2fbe 3bff 9d3d
00000010: 5a2f 7dbe a18c 8abe 4e6a 6dbe 7629 8abd
00000020: 9ad4 5ebe 4d0f 08be 6dac 64be 3441 5abe
00000030: c0d4 fcbd 48ff a3bd 03ac 40be 6d3a e2bd
00000040: 0fbc c0bd b036 b0bc 9e62 99be 774f 8bbd
00000050: 4393 a8be 1016 21be bda6 32be 8726 25be
00000060: 7680 22bd 6bdd e1bd f9d0 febd 6b0a 83be
00000070: 85c0 8dbe af4d dbbd dc18 b2be cf67 d6bd
00000080: 96dc 27be ac90 fdbd dabe 01be 7d2c 0abe
00000090: f427 c8bd 1914 e4bd f488 32be d77a 77be
000000a0: a9e7 5dbe 8a78 3dbd b42d 10be e25c 4cbe
000000b0: 03f3 c0be 8f71 04be f1ac a0be d067 39be
000000c0: 3b75 b0be 9e7a 02be 733f 46be 4d8c 54be
000000d0: dd94 5fbe 41ed 70be e011 3bbe abfb 57be
000000e0: 142d 8ebe 1386 a0be 4120 60be d660 76be
000000f0: 140a 253c 140c 36be 1970 7dbe d268 a3be
00000100: 2bcc debd d5b1 71bd 817a 6fbc bfd9 68bd
00000110: dfcd ecbc 689c babe dad9 91be 6c19 05be
00000120: a60d 1ebe 525b 3bbe ee74 9a3c f37d 75be
00000130: 003e 54bd 85b9 5fbe 659a 1cbe 4073 7abe
00000140: 83fb 75bd 7e99 40be b503 6ebe 6e04 80be
00000150: 8d13 7fbe 4518 0dbd 75a3 9cbe 8259 f9bd
00000160: a1e6 64bc 6c3d 63be 57e1 21be 94d5 57be
00000170: cc69 13be b32f 98be 028a 0dbe d51e 4fbe
00000180: fc99 2cbe b72d dbbc 117a 3ebe 371c 5fbe
00000190: 181c 91bd 7ffd 99bd 14d6 afbd f4ee 55be
000001a0: 78ec 09be a865 dfbd 06e1 07be a66d 31be
000001b0: e678 ecbe 5609 95be 5aa8 f4bd b72f 95be
000001c0: 5c16 98be 79ce cbbd 308c bc3c b65e eebc
000001d0: 9e1f 9cbe d5ae 6ebe 5173 acbe 4b8b 34be
000001e0: d898 4cbe d27a 8dbe 5fca 84bd 8dba a8be
000001f0: 3ce9 40be 9126 18be d568 9bbe c756 81be
00000200: 42d9 55bc 35de 0cbe 088e e9bd d347 c43c
00000210: 18cb 1bbe f22d 52be bb5b 30be 97ff 3dbe
00000220: 14dd 42be a1e0 d4bd dd27 39bc a232 86be
00000230: 68c5 5cbe 4a27 8bbd 179b 97be 17d9 6cbe
00000240: f719 77bd 0b5e 91bc 9703 5abe 8b97 44be
00000250: 2da0 32be 8923 24be 4133 c7bd 01b5 99be
00000260: 9ca7 1abe c3cb 7fbe 7267 a1be 0d6d c2be
00000270: b3d7 cebe 48ed 3bbe 13a2 79be 1e0f f3bd
00000280: f3b2 8dbe c1d8 58be fdb9 3dbe e385 4bbe
00000290: e3a2 19be e2bf 13be 6597 3cbd f986 edbd
000002a0: 4f84 08be fe49 7fbd 9f51 89bc 42e1 92be
000002b0: 0ca6 b6be 87eb 8abe 9ddf 4abe 4922 97bd
000002c0: 4824 4ebe f19a 81be 5a9d adbd a93d f1bd
000002d0: 1498 67be 9702 91be 722c a2be 33e5 8ebe
000002e0: 750d c6be 8eb5 54be 53f1 323d 8886 2fbe
000002f0: 30b9 893c e356 d3bd d3c5 59be 6e28 24be
00000300: 4e5d 4cbe 4351 04bd 9204 d53c 8df3 e2bd
00000310: 9975 33bd 993e 9cbe e4d5 0bbe f9a6 6abe
00000320: e75b 2a3c 1ee6 28be 7891 e6bd 9561 3bbe
00000330: 85b7 ebbd 1bce 60be ad80 babe bcb0 6cbe
00000340: d1db e7b9 9cd2 60bd 6a51 aebe 79c9 6abd
00000350: 5fac a5be b6d1 36be 2e6f 6bbe 0d77 71bc
00000360: 77cc a5be 047f 8bbd 5179 57be d4eb 55be
00000370: c0e2 40be 2adb 97be bc9e 92be 692d 7dbe
00000380: cde3 a1be 3a7d d3bd eb74 09be cead 22be
00000390: d022 43bc a44b c6bd b27f 22be 65ab 37be
000003a0: eca0 c0bd 0941 0ebd 2a61 0abe 3f9d abbe
000003b0: 6f51 ecbe ea4b 3cbe 2466 98be 216d 8ebe
000003c0: ea05 7dbe 0d01 83be 9128 f5bd 6eec c33c
000003d0: 8d62 61be 73e2 b9be 4c9b 1bbe 8d7c 4bbe
000003e0: 0997 49be b66f 4fbe 3dcc 40be ee9f 30be
000003f0: 7bea 27be 5020 c0bd 05b3 97be 64dc ecbd
-0.11282878 -0.06672076 -0.17183702 0.07714697 -0.24725094 -0.27060416 -0.23185083 -0.06746189
-0.21760789 -0.13287087 -0.223314 -0.21313936 -0.12345266 -0.080076754 -0.18815617 -0.110463
-0.09410869 -0.021510452 -0.2995805 -0.06802266 -0.32924852 -0.15731072 -0.17446418 -0.16127978
-0.03967329 -0.1102856 -0.12442202 -0.25593886 -0.27685943 -0.10708176 -0.3478459 -0.10469019
-0.1639274 -0.123811096 -0.1267046 -0.13493533 -0.097732455 -0.11136646 -0.17435056 -0.24167953
-0.21670403 -0.046257533 -0.14079934 -0.19957307 -0.37685403 -0.12933944 -0.31381944 -0.18106008
-0.3446444 -0.12742087 -0.19360141 -0.20756646 -0.2183413 -0.23528005 -0.18268538 -0.21092097
-0.27768767 -0.3135229 -0.21887304 -0.24060377 0.010073204 -0.17778045 -0.24749793 -0.3191591
-0.10878786 -0.059007484 -0.01461661 -0.056848284 -0.02890676 -0.36447453 -0.2848652 -0.12997979
-0.15434894 -0.18296555 0.018854585 -0.23973827 -0.05181694 -0.21848114 -0.15293272 -0.24458027
-0.060054313 -0.18808553 -0.23243602 -0.2500338 -0.24909802 -0.034446973 -0.30593458 -0.121752754
-0.013971002 -0.221914 -0.15808617 -0.21077567 -0.14395827 -0.29723892 -0.13822177 -0.20226605
-0.16855615 -0.026755197 -0.18601252 -0.21788107 -0.070854366 -0.07519054 -0.08585754 -0.20891935
-0.13469112 -0.10908061 -0.13269433 -0.17326984 -0.46185988 -0.29108685 -0.11946173 -0.29137966
-0.2970456 -0.09951491 0.023016065 -0.029097896 -0.30492872 -0.2330888 -0.3368173 -0.17631261
-0.1998018 -0.27632767 -0.06483912 -0.32954827 -0.18838972 -0.14858462 -0.30353418 -0.25261518
-0.013052287 -0.1375664 -0.114040434 0.02396003 -0.15214193 -0.20525339 -0.17222492 -0.18554531
-0.19029647 -0.10394407 -0.011301008 -0.26210505 -0.2155968 -0.06794603 -0.29610512 -0.23129688
-0.060327496 -0.017745038 -0.21290432 -0.19198434 -0.17443915 -0.1602918 -0.09726573 -0.30020908
-0.15103 -0.24980073 -0.31524235 -0.37973824 -0.4039894 -0.18352234 -0.24378233 -0.11868118
-0.2767559 -0.21176435 -0.1852798 -0.19875292 -0.15003543 -0.14428666 -0.04604282 -0.115980096
-0.13331722 -0.062326424 -0.016762553 -0.28687483 -0.3567356 -0.27132818 -0.19811864 -0.07379586
-0.20131028 -0.25313523 -0.08477278 -0.11779339 -0.22616607 -0.28322288 -0.31674534 -0.2790924
-0.38682142 -0.20772383 0.043687176 -0.17141163 0.016811937 -0.10319307 -0.2126687 -0.16031048
-0.19957468 -0.03230406 0.026003156 -0.1108161 -0.04381332 -0.30516508 -0.13655812 -0.22915258
0.010397888 -0.16494033 -0.11258215 -0.18298943 -0.11509613 -0.21953623 -0.36426297 -0.23114294
-0.0004422353 -0.054888353 -0.3404649 -0.057321046 -0.3235807 -0.17853436 -0.2299163 -0.014737857
-0.32382557 -0.06811336 -0.21042372 -0.20890743 -0.18836498 -0.29659396 -0.2863673 -0.24724354
-0.3161911 -0.103266194 -0.13423507 -0.15886614 -0.011910155 -0.09682396 -0.15869024 -0.17936476
-0.094056934 -0.03472999 -0.13513628 -0.33518407 -0.4615588 -0.18388334 -0.29765427 -0.27817634
-0.24709287 -0.2558674 -0.11970628 0.02391645 -0.2201025 -0.3630558 -0.1519596 -0.19871731
-0.19686522 -0.20257458 -0.1882791 -0.17248508 -0.16398041 -0.09381163 -0.2962877 -0.11565474

fc_logvar.bias f4 [16]
00000000: f135 88be ec80 0cbe 11c1 69be f6c4 21be
00000010: 2d33 59be d38f 8dbe e9a1 37be e15d 3cbe
00000020: add1 ecbd 5eb0 8fbd 0b9f 92be 88c9 76be
00000030: 4d8a 75be c85b 77be 48ec 88be 17af 94bc
-0.26603654 -0.13721055 -0.22827555 -0.15797791 -0.21210928 -0.27648792 -0.17932858 -0.18395187
-0.1156343 -0.07016061 -0.28636965 -0.24100316 -0.23978539 -0.24156106 -0.26742768 -0.018149896

decoder.0.weight f4 [64, 16]
00000000: f2fe 9fbb c40e 0d3e d52b 69bd 554b afbe
00000010: c650 263e 321d bbbc 8086 343e bddd 6fbe
00000020: 104c 37be 4722 c13e 3692 eabd 134c 123e
00000030: 89d1 41bd b84f a23e 2421 3a3c 3935 a63d
00000040: 3a94 12be 7e37 cfbd 8656 8f3e e469 db3d
00000050: 626b 2bbd a40b 46be 0f22 b0be 2b31 3c3e
00000060: 2fa0 e1bc fd66 263e 4443 0e3e f504 533d
00000070: d315 d9bc 9e75 55be bb6e eb3b 5930 323e
00000080: 99aa 2fbe 381c 84be b8ef 973b e02e e13c
00000090: 3c06 0a3e bc4b 88be f15e 90be e859 7cbe
000000a0: 97c3 d6bd 5b60 4b3e e2a5 a13e 8889 d53d
000000b0: 22e4 1d3e 666d d8bd 8a07 f6bd 9d37 223c
000000c0: 7497 633e fcdd f9bd c823 82bd 3ab7 17be
000000d0: 5f59 183e 8acc 0dbd 04ed 2cbe 46f4 7cbe
000000e0: 7928 9e3c 1f67 de3d 58ed 2e3e 8c1d 68be
000000f0: 6674 b6bd b0e2 1abe d198 4b3e 359b ff3d
00000100: 98e7 0a3e 6f9e 743d 771f a4bd 6422 9c3e
00000110: 3fa0 753d 4f38 81be 23ce 0cbe 564a e43d
00000120: 11b8 3abe b8fd 923e fe3e c93c 7700 5b3c
00000130: 91e3 84bc 2a58 14be 0e1f 0fbe 8540 623c
00000140: 818d 1e3e c463 97be 9649 90be 421c 3a3e
00000150: 93f5 89be e492 8d3e 3bf8 20be df52 e43d
00000160: 6cc9 ef3d e9ef 8cbd 5a25 553e e745 c23d
00000170: 918a 78bd ea19 28bd 1974 a6bd 300c 5abe
00000180: ebdd 9e3c 2033 0bbd 2341 94be 1e3b 3fbe
00000190: d66f 593e 3c7b d6bc 5c96 3cbd 14c9 223e
000001a0: 87c1 2b3d cd60 b9bd 38c0 743e d933 283e
000001b0: e5a0 dfbd 992d 1fbe 04e2 84be bc48 853d
000001c0: 18e7 fb3d 0429 58be c271 cabd 1293 7d3e
000001d0: 18dd 43be cdd9 63be 0f63 733e edde 553e
000001e0: 79c4 553d 9078 8a3d 559e 59bd e250 98bd
000001f0: 6f60 9bbe db45 47be 06a1 243e dd28 6ebd
00000200: de89 503e d95c 58be c42a af3e 3fb3 943e
00000210: aa27 a63d 731b e63d 2970 a9bd 2e82 43bd
00000220: 7118 363e 97fd 14be db40 83bd 98fe 2ebe
00000230: b57d 80be a6e4 44bd e9f9 2d3e 8c76 6ebe
00000240: a0f9 0d3e ec66 ef3d 1be4 2cbe 51ec 333e
00000250: a681 653e 764c 0abe 7e09 943d b51f 01bd
00000260: 090a 52bd 43c1 59be 4548 ac3d 2982 ca3d
00000270: 1f90 32be a91c 52be 9209 ba3c 5b5a 60be
00000280: c90f 323d 3add bfbd e792 f53d 8e63 513e
00000290: a91a 073c 111d 84bd 2d76 d83c 5872 643e
000002a0: e1af bd3d b51f 413c f943 c13d 7b66 7cbe
000002b0: 59bb 563e f5dc eebd 2c2c 81be 6749 1ebe
000002c0: 22b9 843e 2e78 7c3d 8f4a 75be 5d7c 523d
000002d0: af15 1abc 5f85 16bd 16b7 8c3e c322 243e
000002e0: 7f7e b83d b9e0 49bd 5782 8f3d 6cae 04be
000002f0: fe18 c4bd ad17 57be c552 193e 7902 18bc
00000300: 19fd f1bd 7244 8b3d f8db 253e 6a84 273e
00000310: a3ed 59bd 9fc4 48be 26d0 cdbd f3ed 743e
00000320: 3d83 0e3e 708f 4fbe 0923 f23c 6cc9 ee3c
00000330: df52 9d3d 1a2d d13d 769b 8d3e 45e6 67be
00000340: ab24 6cbd 99d5 e9bd 0cec 80bd 42b2 1fbe
00000350: 465b 64be 2ca3 28be ecb9 9dbe 6861 553d
00000360: 2580 873d 159a 8b3e 6112 803c 20be ecbc
00000370: af5b 56be 8711 013e 1d9d 8d3e 8b43 14be
00000380: be1f 14be bb9d 78be 6eeb 93be 04bd ee3c
00000390: fa3f 1e3e 9525 98bd 6a2d 7abe 3b2e ee3d
000003a0: 8bee 71be 549b 41bd 681d 5b3e 7542 80be
000003b0: c2bd ccbd 7560 de3b 1b53 643e 4327 8ebe
000003c0: 4926 eebc 4596 813e 8f54 1a3e 5b6e 123e
000003d0: b98b 543e 2e03 e0bc 35de efbd cc7a 7bbe
000003e0: 57b1 d93d 8ee2 dd3d 4772 15be bd95 17be
000003f0: e997 803e b02e c5bb 6c4d b2be a25f 023d
-0.004882687 0.13775164 -0.056926567 -0.3423716 0.1624175 -0.02284107 0.17629433 -0.2342443
-0.1790011 0.37721464 -0.11453669 0.14286833 -0.04731897 0.31701446 0.01136044 0.0811562
-0.14314356 -0.10118006 0.279957 0.107135564 -0.041850455 -0.19340378 -0.34400985 0.18378131
-0.027542202 0.16250224 0.13892847 0.0515184 -0.026499664 -0.20845649 0.007184831 0.17401256
-0.17154922 -0.2580278 0.004636731 0.027488172 0.1347894 -0.2662028 -0.28197435 -0.24643672
-0.104865246 0.19860975 0.3157187 0.10426623 0.15419057 -0.10567741 -0.12013157 0.009900955
0.22225744 -0.12200543 -0.06354481 -0.14815989 0.14877842 -0.03461889 -0.1688729 -0.24702558
0.019306408 0.108595125 0.17082727 -0.22667521 -0.0890892 -0.15125537 0.19882514 0.12480775
0.13564909 0.059721407 -0.08013814 0.30494988 0.059967276 -0.25238273 -0.1375051 0.11146991
-0.18234278 0.28709197 0.02456617 0.01336681 -0.016221793 -0.14486757 -0.1397669 0.013809328
0.15483667 -0.29568303 -0.28181142 0.18174842 -0.2694517 0.2765113 -0.15719692 0.11148619
0.1170834 -0.06881697 0.2081503 0.09485989 -0.060679022 -0.04104034 -0.081276126 -0.21293712
0.019392928 -0.033984303 -0.28955945 -0.18674895 0.21234068 -0.02618181 -0.04604183 0.15897018
0.04193261 -0.090516664 0.2390145 0.16426028 -0.1091936 -0.15544738 -0.25953686 0.065080136
0.12299937 -0.21109396 -0.09884979 0.24763134 -0.1912731 -0.22251053 0.23768257 0.2088582
0.052189324 0.06761277 -0.053129513 -0.07437302 -0.3034701 -0.19460241 0.1607705 -0.05814444
0.20365092 -0.21129169 0.34212315 0.29043004 0.08113034 0.11235704 -0.08273346 -0.04773157
0.17782761 -0.14549862 -0.064088546 -0.17089307 -0.25095907 -0.04806962 0.16989864 -0.2328741
0.13864756 0.11689553 -0.1688389 0.17570616 0.22412738 -0.1350573 0.07228373 -0.03152438
-0.0512791 -0.2126513 0.08412222 0.09888107 -0.1743779 -0.20518745 0.022709642 -0.21909468
0.043472085 -0.093683675 0.1199091 0.20448133 0.008246102 -0.064508565 0.026423538 0.22309244
0.09262062 0.011787345 0.09436793 -0.24648468 0.20969905 -0.11663238 -0.25229013 -0.15457688
0.25922495 0.06163805 -0.23954223 0.051388133 -0.009404584 -0.036748286 0.27483433 0.16028886
0.09008502 -0.049286578 0.07007282 -0.12957162 -0.095750794 -0.21005125 0.1497298 -0.009277933
-0.11815853 0.06800164 0.16197193 0.16359106 -0.053205144 -0.19606255 -0.10049467 0.23918895
0.13917251 -0.20269561 0.029557722 0.02914878 0.07681822 0.102136806 0.2765767 -0.22646435
-0.057652157 -0.11417694 -0.06295022 -0.15595344 -0.22300443 -0.16468495 -0.3080591 0.052094847
0.066162385 0.27265993 0.015633764 -0.028899252 -0.20933412 0.12604342 0.2765893 -0.1447889
-0.14465234 -0.2427892 -0.28890556 0.029142864 0.15454093 -0.07429043 -0.24431387 0.116299115
-0.23626153 -0.047267273 0.21397936 -0.25050703 -0.09997131 0.006786401 0.22297327 -0.2776433
-0.02907099 0.2530996 0.15071319 0.1429991 0.20756425 -0.027345266 -0.117123045 -0.24558562
0.10629528 0.108342275 -0.14594375 -0.14803214 0.25115898 -0.0060175285 -0.34824693 0.031829484

decoder.0.bias f4 [64]
00000000: 9bdf a63e 92b3 da3e e366 973d 5884 043e
00000010: 8523 623e c662 0c3c 0d9c 763c 97ce c5bd
00000020: 1701 4a3e fb6e 393e 3164 cabc 4e84 2d3e
00000030: a78e 0f3e 37c1 873e 9672 91be d987 0ebe
00000040: 2850 bbbe 7636 f43d e6c8 533e 798d 09be
00000050: 1553 ba3e 4ddb 043d 5fb8 e7bc dd0b 18bd
00000060: 54f8 e43e eb76 873e 3cce c23d 18d2 a43e
00000070: 372f 953e 6f45 c83d 96a9 b4be bd7a 293c
00000080: 4446 463d 6b65 743d 1b84 eebd b60a 3cbe
00000090: 96f7 6f3d 1f56 95bd d6c4 c0bd 414b a33d
000000a0: 5dde a4be 13a4 033d a978 913e 8c44 b6bd
000000b0: ae88 e73e 9d14 d0bd 4233 9bbe d112 543e
000000c0: a5f4 69be df1f d43d 4777 54be 0fff 453e
000000d0: 046e 84be cc1e a3be 36b4 8a3e 89cf 1e3e
000000e0: cb1c a33d 0259 583d 9bef 94bc 36cf 95be
000000f0: 4b06 a43e 2596 2c3d b7b4 853c 21a3 9f3e
0.32592472 0.42715126 0.07392671 0.1294111 0.22083862 0.008568471 0.015051854 -0.096585445
0.19726978 0.18108742 -0.024705978 0.16945001 0.14019261 0.265146 -0.28407735 -0.1391901
-0.36584592 0.1192445 0.20682105 -0.13432874 0.36391512 0.032435704 -0.028286157 -0.03712069
0.4472071 0.26457915 0.09511992 0.3219154 0.29137585 0.097788684 -0.35285634 0.0103442045
0.048406854 0.059667032 -0.11646291 -0.18363461 0.058585726 -0.07291817 -0.094125435 0.07973338
-0.322009 0.032138895 0.2841237 -0.08899793 0.45221466 -0.10160182 -0.30312544 0.20710303
-0.2284723 0.103576414 -0.20748626 0.19335578 -0.25865185 -0.31859434 0.27090615 0.15508856
0.07964476 0.05281926 -0.018180659 -0.29259652 0.3203605 0.042135376 0.016321523 0.31179145

decoder.2.weight f4 [128, 64]
00000000: 0a4f 8fbe 01a6 923d a620 e23d 25a5 98bd
00000010: 9035 87bd 2631 f8bc b985 50bd 37a8 7e3d
00000020: 9b6f fd3c 9ccd b9bd 1a73 883d d604 97bd
00000030: 9da4 183e 7d49 93be b1f2 f8bc 737a 00bd
00000040: 2246 2cbd 8cfe ad3d 3b50 1abb fe57 1b3e
00000050: 988a 01bd bca5 c6bd 2506 103e 7446 1b3d
00000060: df5a 7cbb f767 35bd 555c 2cbd c7e3 a83c
00000070: 5670 093e 9fbd 94bc 2923 92bd 3512 c63b
00000080: 8683 63bd 1bf1 82bd 5a18 babd d8b2 a83d
00000090: db55 4cbc 6fbe db3d f1d5 2bbd 82e2 42bc
000000a0: 01d2 2b3e 8bc7 92bd 4d51 2c3e fe52 c3b9
000000b0: 90ea 3fbd e810 90bb 4e82 013e c274 6e3d
000000c0: b4c9 03bd 4c9e bbbd 4605 f7bc ae27 223b
000000d0: 9d4d 303d 8edf f9bd 84c9 cc3d c762 e6bd
000000e0: c3ca 893d facb 6fbd bde7 153d 636e dcbd
000000f0: 9766 56bd 14e8 983d ab4e 843c 6f9e 0f3e
00000100: 2411 cb3d 6b09 a03d a54b 89bd 0671 babd
00000110: 45fb 0fbd f8f0 d7bd 1bb4 20be deea e4bd
00000120: 535e b4bd 823b d7bc 6f2b 6d3d 63e1 2fbd
00000130: b509 333d b531 b53c aedd dcbc 91c6 6e3d
00000140: 9671 cbbd 21e3 053e 193d d7bd 99e0 9cbd
00000150: e09d 073e 0abf 4e3e 1eeb 04be fb17 c83d
00000160: 950a 0cbe f968 80be 0cb1 e5bd 4a51 dc3d
00000170: f917 9e3c cee8 c0bd 45b1 c8bc 25af e5bc
00000180: 61fc cb3d b20f 883d 3cd0 183d 2fb5 273b
00000190: ced0 a13c 7b4d 08bf 5af9 1bbe 46f5 bdbd
000001a0: c10e 04bd a05e ff3c b034 3c3d c0be 983d
000001b0: cacc adbd 721a ba3d 094a 6cbd b016 563d
000001c0: 7208 39bb 6a56 c03c 6b33 053e 705d f33d
000001d0: 9f82 9f3d c2bc 9d3c 0ce8 7e3d 1c22 b5bd
000001e0: c4e9 f3bd 94ed b43d 853f be3d 1d72 37be
000001f0: 6ed0 d73b 8816 64bc d3ae 373e dee6 a53c
00000200: 2af6 26be b195 bf3d df86 073c 1468 08bd
00000210: 0b22 003e b73f b3bd 7e09 fc3d 669f 2c3e
00000220: c8cb f1bd 8dc0 793c ba8f a13d eba1 5f3c
00000230: 1d5f 5fbc af8e c7bd 5ea2 0b3e 5f2b 80bd
00000240: 52d0 e33d 4fe9 8f3d 7382 0e3d c692 2fbe
00000250: 3290 32bd fd89 063e 517a a0bc 3b6e acbd
00000260: 02e6 cabc 4538 cbbc 7853 debd 2795 a33c
00000270: 1c31 f0bd 9a6c 02be 0780 ef3d 69cd dabb
00000280: 73a4 753b 91cd a73c 0ac0 1a3d c647 093d
00000290: a210 e53d 5b2b c9bd 12e7 b5bd 8ce5 b0bc
000002a0: 0771 babc 8f2b 233e f68f bb3d 40f1 71bd
000002b0: 2ffe 6fbd e211 aabd dfdd 86bd 5d14 70be
000002c0: 9cf6 a73d 6977 ed3c 2766 de3d b654 36bd
000002d0: fd95 a2bd 7c84 d4bd 1671 963a 9b75 f8bd
000002e0: 3e07 bb3d 7bb3 2cbc 39fa fabd a71c 2d3e
000002f0: 28e5 89bd f042 e6bc 8731 133e 91e5 c5bd
00000300: e9ce 3a3e b2a6 ba3d ef06 fd3c e670 273d
00000310: 776a acbd 940d 87be 2413 61bd b207 ea3d
00000320: 0c24 a7bd 9601 40bd 1404 7c3d c0a5 0d3e
00000330: 5c87 1cbc c191 873d f8a0 90bc 2af2 243d
00000340: 7ca5 7bbe 1ee7 d1bd e883 c1bd db70 313e
00000350: 7253 c73d 030b bf3d f0ad 84bd 9e97 64bd
00000360: 6c2c 733b 6f7c 1e3e 75b8 fd3b aa0c b7bc
00000370: 7b46 0cbe cb1b ecbd eaac bebd 5e9e 50bd
00000380: 0c7a ec3d 17d6 3f3e 3445 b8bc 3b4d 3dbe
00000390: f35c 3cbe e073 163e 9e10 1cbb e87f e33c
000003a0: d1ad 1cbc d2bb 41be 466a 80bd 2bec 9fbd
000003b0: 6112 3a3e 3f43 173d f655 5e3d 3b58 01be
000003c0: 8561 e4bc 4583 78bd a205 0dbe 004f a7bd
000003d0: 81a5 0f3d 81b4 a13d 3711 ac3d fce8 d63d
000003e0: 9b78 573d 60bf f6bc 463c f1bd faa7 f0bd
000003f0: 0296 163e 4f00 b53d 24e8 ea3d 8b23 d13d
-0.2798999 0.07160569 0.110413834 -0.07453374 -0.06602013 -0.030296873 -0.050908778 0.06217214
0.030937007 -0.0907242 0.06662579 -0.07373969 0.14906545 -0.28767005 -0.030389162 -0.031366777
-0.04205907 0.084958166 -0.0023546356 0.15170285 -0.031626314 -0.0969958 0.14064844 0.037908986
-0.0038506312 -0.0442886 -0.042080242 0.020616425 0.13421759 -0.018156825 -0.071356125 0.006044651
-0.055545352 -0.063936435 -0.09086676 0.08237237 -0.012471641 0.10729682 -0.041952077 -0.011894824
0.16779329 -0.07166966 0.16827889 -0.00037255132 -0.046854556 -0.0043965466 0.12647364 0.058216818
-0.03217478 -0.09161052 -0.030153882 0.002474289 0.043042768 -0.12200843 0.099993736 -0.11249309
0.06728127 -0.058544137 0.036597956 -0.10763242 -0.05234393 0.074661404 0.016150793 0.14025281
0.09915379 0.07814296 -0.06703881 -0.09103589 -0.03515174 -0.10544008 -0.15693705 -0.1117761
-0.088070534 -0.026273493 0.05790275 -0.042939555 0.04371043 0.022118429 -0.026961174 0.058294836
-0.09933774 0.13074924 -0.105097 -0.07660026 0.13243818 0.20190063 -0.12980315 0.09770199
-0.13675912 -0.25080088 -0.1121541 0.10757692 0.01929854 -0.09419404 -0.024498591 -0.028037617
0.09960247 0.06643619 0.037307963 0.0025590172 0.019752886 -0.53243226 -0.15231839 -0.09275298
-0.032240633 0.03117305 0.045948684 0.07458258 -0.08486326 0.09087075 -0.057687793 0.05226773
-0.0028233794 0.023478705 0.13007896 0.11883056 0.07788586 0.019255046 0.062233016 -0.088443965
-0.11909822 0.08834377 0.09289459 -0.17914625 0.006586126 -0.0139213875 0.17937784 0.020251688
-0.16304842 0.09354723 0.008271902 -0.03330238 0.12512986 -0.08752387 0.12306498 0.1685768
-0.11806446 0.015243662 0.07888742 0.013649444 -0.013633517 -0.097440116 0.13636157 -0.062582724
0.11123718 0.07026922 0.034792375 -0.17145833 -0.043594547 0.13138576 -0.019589575 -0.08419462
-0.02476788 -0.024807105 -0.10855764 0.019968582 -0.11728117 -0.1273674 0.11694341 -0.006677319
0.0037482053 0.020483764 0.0377808 0.033515714 0.11184813 -0.098227225 -0.08881964 -0.021593831
-0.022758974 0.15934585 0.09158318 -0.059067965 -0.058592018 -0.08304192 -0.06585287 -0.23445268
0.08201334 0.028987603 0.10859328 -0.04451438 -0.07938764 -0.10376832 0.0011477794 -0.121318065
0.09132241 -0.010540838 -0.122547574 0.16905461 -0.06733161 -0.02810809 0.14374362 -0.09662927
0.18242992 0.09113826 0.030887095 0.040879153 -0.08418744 -0.26377547 -0.054949895 0.11427249
-0.08161172 -0.046876512 0.061527327 0.1383276 -0.009553757 0.06619597 -0.01765488 0.04027001
-0.24574846 -0.1024916 -0.09448987 0.17328207 0.09732713 0.09328272 -0.064784884 -0.055808656
0.0037105335 0.15477155 0.0077429363 -0.022344906 -0.13698761 -0.115287386 -0.093103245 -0.05093228
0.11546716 0.18734013 -0.022493936 -0.18486492 -0.18394832 0.1469264 -0.0023813616 0.027770951
-0.009562925 -0.18919304 -0.0627027 -0.07808717 0.18171073 0.036929365 0.054281197 -0.12631314
-0.027878532 -0.060672063 -0.1377168 -0.08169365 0.035069946 0.078957565 0.08401721 0.10493657
0.052605253 -0.030120552 -0.11779074 -0.11750789 0.14705661 0.088379495 0.114700586 0.102118574

decoder.2.bias f4 [128]
00000000: 27b6 92bc 66a8 9a3e 8540 99bd 9f14 973e
00000010: 508d 1b3c af37 32be b716 a33c 7b94 8dbd
00000020: 7e1f b7be 52b5 2a3e 656f 983d f41e 163e
00000030: b414 3b3e f4d7 80ba 3d92 cb3e fc73 91bd
00000040: 588c cf3e a8a1 0cbd 11e4 643e 4a60 ddbd
00000050: 9f71 4bbe 3df1 d83d 51d3 4bbe beb8 7c3e
00000060: 1441 a9bd a7a2 5f3e e32b 093d 40ea 373e
00000070: 8c62 443b d557 9b3d 0948 e7bd 02b2 4e3d
00000080: 030f 64bd dff2 ba3e b5e3 febc 8722 163e
00000090: 383b 8c3d 9fdb f8bd 09a5 173e da43 32bd
000000a0: c4ef 6c3e 73a3 823e 8489 4fbe 0f88 1e3e
000000b0: 73ac 303c 7351 1e3e 1f8f 68be 858a 02be
000000c0: c2d1 68be 1b55 eb3d fd26 00bd 12fd 4f3e
000000d0: 267d 8e3e 5c8c c3bd 2818 d8bd 245d 75be
000000e0: e0f5 19be 32cb 99bd 9a99 2ebe e88c a63e
000000f0: c5e1 98bd 0acc e73c 6898 c43d 8936 cabc
00000100: ec67 b23d 773e ac3c e0e2 fa3d 60d4 053e
00000110: 6d53 fdbb 49c5 dd3d 9450 6d3d d2b1 983e
00000120: 1295 633d 607a 82bc c49c bc3d fcf7 58be
00000130: 9c1f 683e 0c05 0c3e 950d 0d3e 83a5 a73c
00000140: d4d9 813c 4cfa d93b 32c7 f0bc d41a 1bbd
00000150: f11e edbd e72d 98be e757 1ebe 997b df3c
00000160: 0744 0b3e bec5 ab3c 06c4 27be 9601 aabd
00000170: 0203 7c3e 9ec3 38be 0d60 fbbc fac3 cc3e
00000180: a1f5 6dbe d40c 403d 92c2 babc 27fb d43d
00000190: eddb 513d db04 9a3d 506c e03d 4ab4 aebe
000001a0: f502 72be f490 7e3d 14b7 acbb 33e3 853d
000001b0: 03bb b9bd 29fe a6bc 8942 0f3e 05ed dd3d
000001c0: f2d7 233d 5fc4 33bd 799b babd 29dd 4ebb
000001d0: c51f 493e 0c9f 0c3e dd15 733d b2dc de3b
000001e0: 58ce 91bd ac1c e9bb b330 f43d ac4b c63d
000001f0: 8b0f 263e de95 87be 95fe 593e d4a9 3ebd
-0.017909123 0.30206603 -0.07483009 0.2950792 0.009494141 -0.17404054 0.019908292 -0.06913086
-0.35766214 0.1667073 0.07443122 0.14660245 0.18269616 -0.0009829984 0.39760008 -0.071022004
0.4053676 -0.034333855 0.22352625 -0.10809381 -0.19867562 0.105928876 -0.1990483 0.24679849
-0.08264366 0.2183939 0.03348912 0.17960453 0.0029965965 0.07585112 -0.112930365 0.05046273
-0.05567838 0.3651342 -0.031114439 0.14661609 0.068472326 -0.121512644 0.1480905 -0.04352174
0.23138338 0.25515327 -0.20267302 0.1548159 0.010783303 0.15460758 -0.22710846 -0.12748154
-0.22736266 0.11490842 -0.031287182 0.20311382 0.27829856 -0.09548256 -0.105514824 -0.23961312
-0.150352 -0.075094596 -0.17050782 0.32529378 -0.07464937 0.028295536 0.09599382 -0.024684208
0.08711228 0.02102588 0.12250304 0.13069296 -0.0077308924 0.10828645 0.057938173 0.29823166
0.055562086 -0.015927494 0.09209588 -0.21188349 0.22668308 0.136738 0.13774712 0.020464664
0.015850939 0.006652152 -0.029391859 -0.037867382 -0.11578167 -0.2972252 -0.1546322 0.027280616
0.13600169 0.020968314 -0.16383371 -0.08301084 0.24610522 -0.18043372 -0.030685449 0.39993268
-0.23238231 0.046887234 -0.022797856 0.10399466 0.05123513 0.07520457 0.10958159 -0.34121925
-0.2363394 0.062149957 -0.005270848 0.065374754 -0.09068873 -0.020384865 0.13990225 0.108362235
0.040000863 -0.043888446 -0.09111685 -0.0031564927 0.19641025 0.13732547 0.059347022 0.0068012113
-0.07119435 -0.0071140137 0.11923351 0.09682402 0.16216867 -0.26481527 0.21288522 -0.04654868
